src/balance_robot/envs/RobotMovePolicy.tflite (tflite, 22440 bytes, 6 tensors)

tfl.pseudo_qconst4 i1 [2, 64]
00000000: 0725 1120 0206 f9f8 18f9 04eb 0909 fc02
00000010: 06f3 f29e 7f14 0600 7ab7 fa32 8902 bc61
00000020: ea47 fa98 12f5 1bfc 2bf4 07c7 1b00 30fe
00000030: 6ff1 0122 0af0 0217 fb01 b8f5 c803 2105
00000040: 0121 6821 ff02 02f8 f5e8 cc11 ef03 f8ea
00000050: 05e3 0301 fbdc 0009 fd0e 02ec d3fc fa02
00000060: 121e 0118 04d3 36fa d7fd 0cda 8106 10f8
00000070: 1810 f6db 0af3 061c 044d cac2 f907 28e2
7 37 17 32 2 6 -7 -8
24 -7 4 -21 9 9 -4 2
6 -13 -14 -98 127 20 6 0
122 -73 -6 50 -119 2 -68 97
-22 71 -6 -104 18 -11 27 -4
43 -12 7 -57 27 0 48 -2
111 -15 1 34 10 -16 2 23
-5 1 -72 -11 -56 3 33 5
1 33 104 33 -1 2 2 -8
-11 -24 -52 17 -17 3 -8 -22
5 -29 3 1 -5 -36 0 9
-3 14 2 -20 -45 -4 -6 2
18 30 1 24 4 -45 54 -6
-41 -3 12 -38 -127 6 16 -8
24 16 -10 -37 10 -13 6 28
4 77 -54 -62 -7 7 40 -30

tfl.pseudo_qconst6 i1 [64, 64]
00000000: b4e1 2911 3f14 d969 fe60 85e4 271d 2dbb
00000010: 3d3d 21d0 6ed5 9302 0cd2 3a79 1ff5 63fa
00000020: c0e6 f6f0 7fef 0c0d 15f8 d40a 11f9 0df2
00000030: 02cf b4ff f3dc de29 3b92 ce08 c6cc 4c5d
00000040: 2eac 55dd 43bb fe11 d103 2ac0 5934 08c4
00000050: 4d22 12f3 78b8 d03a 2a27 eac0 edbf f627
00000060: 2608 c3d7 0625 f639 111c 3fb2 e4b8 c310
00000070: d759 1bbf ed3d 815d d935 c147 da12 dd1c
00000080: 583a 44be 0b03 29ea fe04 c2ca ce63 b5cf
00000090: c70d 06ea 68dd c545 b7fa 0d6a 31fb db65
000000a0: fabc 084f f31a d6d3 fb14 27df 26f2 f840
000000b0: 2119 fdb5 ea1f b533 cb05 7f04 b4d5 ffef
000000c0: 4d11 f0e3 37a1 28d2 81e3 caf2 37e0 9811
000000d0: 3a12 26c2 1cb5 bb87 cfa4 f438 f7d1 e160
000000e0: fed4 2bd9 f22a b60e bdf3 0ea5 5170 e4ed
000000f0: d8f2 1de4 f135 e05b 1df6 4518 d91b 4461
-76 -31 41 17 63 20 -39 105
-2 96 -123 -28 39 29 45 -69
61 61 33 -48 110 -43 -109 2
12 -46 58 121 31 -11 99 -6
-64 -26 -10 -16 127 -17 12 13
21 -8 -44 10 17 -7 13 -14
2 -49 -76 -1 -13 -36 -34 41
59 -110 -50 8 -58 -52 76 93
46 -84 85 -35 67 -69 -2 17
-47 3 42 -64 89 52 8 -60
77 34 18 -13 120 -72 -48 58
42 39 -22 -64 -19 -65 -10 39
38 8 -61 -41 6 37 -10 57
17 28 63 -78 -28 -72 -61 16
-41 89 27 -65 -19 61 -127 93
-39 53 -63 71 -38 18 -35 28
88 58 68 -66 11 3 41 -22
-2 4 -62 -54 -50 99 -75 -49
-57 13 6 -22 104 -35 -59 69
-73 -6 13 106 49 -5 -37 101
-6 -68 8 79 -13 26 -42 -45
-5 20 39 -33 38 -14 -8 64
33 25 -3 -75 -22 31 -75 51
-53 5 127 4 -76 -43 -1 -17
77 17 -16 -29 55 -95 40 -46
-127 -29 -54 -14 55 -32 -104 17
58 18 38 -62 28 -75 -69 -121
-49 -92 -12 56 -9 -47 -31 96
-2 -44 43 -39 -14 42 -74 14
-67 -13 14 -91 81 112 -28 -19
-40 -14 29 -28 -15 53 -32 91
29 -10 69 24 -39 27 68 97

tfl.pseudo_qconst8 i1 [64, 6]
00000000: 6547 99de 7f21 5ed9 040b 8101 0e36 1e21
00000010: 7f0b 28c1 dad2 3181 e9be efef c97f 22d3
00000020: ebd4 fe81 da64 ac92 557f 81ea 5019 b39b
00000030: e381 c0cc 89fe c46f cc98 2b7f 507f fb0f
00000040: 5a90 15d8 fbf0 81d7 b8f2 db09 81d9 442c
00000050: d1dd 7f39 f1c2 12ff 8128 dfd9 6ab8 b881
00000060: b881 0b1d a736 647f 4c08 4a3d e35b cafa
00000070: 7f3b a6ca 241c 810a 2d1d eeeb 7f1d d0ce
00000080: 4c3a 81bd a6b2 3b38 81de 5ddc b6b7 7fc2
00000090: 20ac edd7 81d7 d906 e576 81af f1e5 e110
000000a0: 7ffb 0726 0b1f 7f7d 8af3 8149 a263 7f03
000000b0: 5834 17d8 dc81 121d e121 080c 020d 797f
000000c0: 31ef f60f 7f0c aff0 05fd 81a2 75e4 dfeb
000000d0: 7f2d 2015 0041 7f16 cd1a 0522 9f81 d60e
000000e0: 1815 ee7f b0cf 7f2d d692 d3c3 a5c8 4f7f
000000f0: 83ff 407f a2c0 1d3f 1a49 7f54 81bb 00e8
101 71 -103 -34 127 33 94 -39
4 11 -127 1 14 54 30 33
127 11 40 -63 -38 -46 49 -127
-23 -66 -17 -17 -55 127 34 -45
-21 -44 -2 -127 -38 100 -84 -110
85 127 -127 -22 80 25 -77 -101
-29 -127 -64 -52 -119 -2 -60 111
-52 -104 43 127 80 127 -5 15
90 -112 21 -40 -5 -16 -127 -41
-72 -14 -37 9 -127 -39 68 44
-47 -35 127 57 -15 -62 18 -1
-127 40 -33 -39 106 -72 -72 -127
-72 -127 11 29 -89 54 100 127
76 8 74 61 -29 91 -54 -6
127 59 -90 -54 36 28 -127 10
45 29 -18 -21 127 29 -48 -50
76 58 -127 -67 -90 -78 59 56
-127 -34 93 -36 -74 -73 127 -62
32 -84 -19 -41 -127 -41 -39 6
-27 118 -127 -81 -15 -27 -31 16
127 -5 7 38 11 31 127 125
-118 -13 -127 73 -94 99 127 3
88 52 23 -40 -36 -127 18 29
-31 33 8 12 2 13 121 127
49 -17 -10 15 127 12 -81 -16
5 -3 -127 -94 117 -28 -33 -21
127 45 32 21 0 65 127 22
-51 26 5 34 -97 -127 -42 14
24 21 -18 127 -80 -49 127 45
-42 -110 -45 -61 -91 -56 79 127
-125 -1 64 127 -94 -64 29 63
26 73 127 84 -127 -69 0 -24

tfl.pseudo_qconst10 i1 [1, 64] scale=0.033200435 zero_point=0
00000000: 975c 5fd9 a36a 5f6b a06c 9b64 a12f a05b
00000010: 6476 989c 8986 616c 6988 7868 a171 345a
00000020: 6e9b 705d a58a 9b8e 7398 d3a0 8dda d993
00000030: a577 9b6f 6a7c 87a6 5d67 d65f a59e 7f9a
-3.4860456 3.05444 3.1540413 -1.294817 -3.0876405 3.519246 3.1540413 3.5524466
-3.1872418 3.585647 -3.353244 3.3200436 -3.1540413 1.5604205 -3.1872418 3.0212395
3.3200436 3.9176514 -3.4528453 -3.3200436 -3.950852 -4.050453 3.2204423 3.585647
3.4860456 -3.9840522 3.9840522 3.4528453 -3.1540413 3.7516491 1.7264227 2.9880393
3.6520479 -3.353244 3.7184486 3.0876405 -3.0212395 -3.9176514 -3.353244 -3.7848496
3.8180501 -3.4528453 -1.4940196 -3.1872418 -3.8180501 -1.2616166 -1.294817 -3.6188474
-3.0212395 3.950852 -3.353244 3.6852484 3.519246 4.116854 -4.0172524 -2.9880393
3.0876405 3.4196448 -1.3944182 3.1540413 -3.0212395 -3.2536426 4.2164555 -3.3864443

tfl.pseudo_qconst12 i1 [64, 64]
00000000: cad3 54f8 d93f 3542 a041 10e0 1539 7f13
00000010: 08e0 e2f2 36f5 05da b0f4 f334 131b f2f6
00000020: f7f3 d5eb ffec 2bef abed 3b03 301d f718
00000030: 5428 c0e7 c2ef 0915 0020 2c17 06fa effb
00000040: 3111 ddb9 f5cf dbe5 1be5 2006 eed4 dcec
00000050: 11df 7f01 c2c3 e816 1efe b4e9 f4dd c444
00000060: 0c2d 2cb1 e000 e4eb 1bb9 da08 cdd1 dc16
00000070: e4ec 12d4 0727 f9e5 36e0 cc1c d724 0317
00000080: 19df f3ab b0e8 fd9e 09eb 202f 39ff 37b5
00000090: 48ba 463f 18e6 ba3f 0608 a1f6 d31d 81f9
000000a0: 3917 51f4 921e f41b 1df6 a721 1ff5 a26d
000000b0: f2d0 03ab 5158 1a1d 0be5 e221 ce3d a02c
000000c0: 04df 4351 55dc e9cf 0d01 03db dcca b926
000000d0: 080c 03d6 2cf4 fd29 cc0f 05f6 7f24 c6f8
000000e0: c6e2 3f21 e134 5ffc f40c dfe6 d423 e323
000000f0: 152e 0cfa fe3f 2422 1fe5 66cb 41df bcc9
-54 -45 84 -8 -39 63 53 66
-96 65 16 -32 21 57 127 19
8 -32 -30 -14 54 -11 5 -38
-80 -12 -13 52 19 27 -14 -10
-9 -13 -43 -21 -1 -20 43 -17
-85 -19 59 3 48 29 -9 24
84 40 -64 -25 -62 -17 9 21
0 32 44 23 6 -6 -17 -5
49 17 -35 -71 -11 -49 -37 -27
27 -27 32 6 -18 -44 -36 -20
17 -33 127 1 -62 -61 -24 22
30 -2 -76 -23 -12 -35 -60 68
12 45 44 -79 -32 0 -28 -21
27 -71 -38 8 -51 -47 -36 22
-28 -20 18 -44 7 39 -7 -27
54 -32 -52 28 -41 36 3 23
25 -33 -13 -85 -80 -24 -3 -98
9 -21 32 47 57 -1 55 -75
72 -70 70 63 24 -26 -70 63
6 8 -95 -10 -45 29 -127 -7
57 23 81 -12 -110 30 -12 27
29 -10 -89 33 31 -11 -94 109
-14 -48 3 -85 81 88 26 29
11 -27 -30 33 -50 61 -96 44
4 -33 67 81 85 -36 -23 -49
13 1 3 -37 -36 -54 -71 38
8 12 3 -42 44 -12 -3 41
-52 15 5 -10 127 36 -58 -8
-58 -30 63 33 -31 52 95 -4
-12 12 -33 -26 -44 35 -29 35
21 46 12 -6 -2 63 36 34
31 -27 102 -53 65 -33 -68 -55

tfl.pseudo_qconst14 i1 [64, 6]
00000000: aaf9 7f83 11f1 8109 1806 6715 ff08 817b
00000010: 06e3 eedb 0dfd 8109 f8eb 0512 810d 1f3c
00000020: fd05 7f4a 2a27 cc7f 5029 0d09 7fab 5336
00000030: c5dd 7f25 c21a 5343 15f1 3c81 081e c47f
00000040: fc0d 3ee9 f8fd 7f0b 7f02 1fc2 8617 51c6
00000050: 17e9 7ffc 2b03 f8e4 7f0b b91c 9c4a 7f09
00000060: df16 8b7f 2af7 8103 f7fd 57ea 7116 9b4d
00000070: 7fb5 7ffb 10f7 bb16 3d04 8162 96ca 832b
00000080: 2981 0701 df52 c681 22a7 0b11 a47f df15
00000090: e9f7 5c81 3b01 26e2 6cb2 8111 02db 7fae
000000a0: 03e1 7fff 12f8 db0a 06f1 f806 81f6 5bef
000000b0: c509 811c a30d 23fe 7ff8 1717 81fb 34d8
000000c0: f417 fc08 7ff9 2d2c 7fa0 7cec dcf3 816c
000000d0: 880d 0ce0 ea12 81f8 fef1 7fca 2203 ed02
000000e0: 816c a812 5bfe d233 81f1 51e4 7fa2 87f9
000000f0: a3fe 1281 e816 0ded ea7f dc69 0f0c 7fa4
-86 -7 127 -125 17 -15 -127 9
24 6 103 21 -1 8 -127 123
6 -29 -18 -37 13 -3 -127 9
-8 -21 5 18 -127 13 31 60
-3 5 127 74 42 39 -52 127
80 41 13 9 127 -85 83 54
-59 -35 127 37 -62 26 83 67
21 -15 60 -127 8 30 -60 127
-4 13 62 -23 -8 -3 127 11
127 2 31 -62 -122 23 81 -58
23 -23 127 -4 43 3 -8 -28
127 11 -71 28 -100 74 127 9
-33 22 -117 127 42 -9 -127 3
-9 -3 87 -22 113 22 -101 77
127 -75 127 -5 16 -9 -69 22
61 4 -127 98 -106 -54 -125 43
41 -127 7 1 -33 82 -58 -127
34 -89 11 17 -92 127 -33 21
-23 -9 92 -127 59 1 38 -30
108 -78 -127 17 2 -37 127 -82
3 -31 127 -1 18 -8 -37 10
6 -15 -8 6 -127 -10 91 -17
-59 9 -127 28 -93 13 35 -2
127 -8 23 23 -127 -5 52 -40
-12 23 -4 8 127 -7 45 44
127 -96 124 -20 -36 -13 -127 108
-120 13 12 -32 -22 18 -127 -8
-2 -15 127 -54 34 3 -19 2
-127 108 -88 18 91 -2 -46 51
-127 -15 81 -28 127 -94 -121 -7
-93 -2 18 -127 -24 22 13 -19
-22 127 -36 105 15 12 127 -92
